Assignment6/Question_2/ssl_mnist.pt (torch_old, 103196 bytes, 10 tensors)

weight f4 [10, 1, 5, 5]
00000000: d82d 2d3e 0db2 1cbe 578f 33be 0425 44be
00000010: 664e da3d c46f 7f3e ef99 193e 0660 153e
00000020: 9ca2 883d b712 ee3e a373 86bd 0533 e6bb
00000030: cc9c b03e 7a24 593e c98b 2cbe aa57 5abc
00000040: 6762 813d 7a0b 48be 2d71 583e 7800 0dbd
00000050: 82c1 27bf aca3 b8be f3f6 dfbe 96f0 dabe
00000060: 07c2 e2be 31e7 34bf 3843 28bf c31b 3abf
00000070: b65a 15bf c8a0 613d 1171 3ebe 3f81 b33e
00000080: 5b68 813e c4a5 a5be 16e0 1bbf c279 ee3d
00000090: aceb 6d3d 2994 c33d 4dce 373e bba3 34bf
000000a0: 57ec e33d e84b 943d b861 3e3d 3785 c83e
000000b0: 0fec 21bf 100c 783e d7cf 283e 9206 2dbe
000000c0: e37c 5e3d 1277 17bf ea5c a8bd ce32 e2bc
000000d0: f8e5 33be 6c2d 073e 0f14 e43e 0baf eabe
000000e0: 7af0 1bbe 2107 0f3d 6592 133e 9761 e4bd
000000f0: 631e c9bd 9930 ce3d aff3 123f 10af 3abe
00000100: d007 913c 5cb8 80bc 9baa 00bd b58a 593e
00000110: 4e94 f9bd ce5d edbc 8f29 6b3d f707 6d3b
00000120: 8661 40bd b90a b13d c409 81be 61c6 c7be
00000130: bdd0 99be 628d eb3d a4dd a03e 863b 893e
00000140: b7f3 17bf 7119 4d3e a827 14be c2fb 233c
00000150: 56f4 103e 7d6f 3bbf 6e2d 173e 7cc3 773d
00000160: 95e0 26be 8a6d 073e 975c bbbe a3cd 37bf
00000170: 1a40 cdbc 9a25 943d c986 b0bd d38e c73d
00000180: 5918 50be 6be6 34bf 99ba 01bf fe1e 4cbf
00000190: b0e6 873e ca36 873e b7b0 0bbe c4b2 82be
000001a0: 6e41 5e3e 405e 22be 0456 953e 288c 8d3d
000001b0: 2b9a 9fbe c85f 9bbe 0ff0 12be c9b4 423e
000001c0: e60b 863e 8094 74bd 46bf c6be a00f 90be
000001d0: 5ad7 8b3e 89a8 b23d 5900 bb3b 7580 aabe
000001e0: 4a85 003e 5947 9e3e f0ee f2bb c807 ba3c
000001f0: 4d12 10bf 7bac b038 9e4b b0be af97 403e
00000200: 1908 be3e 9abf da3e e461 f2bc 33f5 bb3e
00000210: c696 f93e c79e b2be 5cd9 b3be fa88 993e
00000220: 619b dc3d f6eb d5be c4e3 44bf dec1 ab3d
00000230: d172 97bd d80b 33be 94b2 d0be 2971 2a3d
00000240: faac c33d 438a 183d abdd 563c 201c a53e
00000250: 1a94 c53e 877a 733e f416 12bf 5d01 583d
00000260: 2661 c83d dbb0 913d ea23 06bf 032f 75bd
00000270: 1196 6dbe 6429 c8bd d2f1 94be e786 9bbd
00000280: 1afe 70be b06d cebe b5a1 2dbf b228 cebe
00000290: 73a8 17be d343 04bf 1f87 bc3b 46c4 993e
000002a0: f973 e5bd 61d5 d5be 9154 2dbf 9df7 a93e
000002b0: 50d6 16bd b3e0 9a3e d699 15bf 9c2f 693e
000002c0: 62d4 903d cf0c 32bd 850b 29bd c8ed 41bf
000002d0: a579 b83d e59b 5a3e b84f 853d 6d35 00bf
000002e0: d106 41be e660 1c3c 2938 d9be 604d 53bf
000002f0: 3681 94be 5859 ff3a acfa 42be feaf 3bbf
00000300: 7e20 093d 9359 193e d121 7d3c d195 76bf
00000310: 19b8 613d 52bc e23d 2869 4d3d 00e5 d53e
00000320: ae6e a3bd 4df1 123d 421a 103e 5c20 8b3d
00000330: 9b65 513d f529 373e 7c70 86be 803d 26bd
00000340: 8d6d 873e 1848 a43d 86ae fb3e ad9b c1bd
00000350: f5a1 39bf 990e 4e3c 5084 563e dbcc 923e
00000360: 1556 e13e c100 cebe 38d9 a5be 027a d43e
00000370: 19ba fcbe b6f7 cf3e 25dd 543e 30fb e43d
00000380: 4fb9 c03d 089b 153d bde7 15bf 07d6 06bf
00000390: d4af eabd 476f 19bd 02e5 343e 9e73 50bf
000003a0: 5200 1d3d 3c3d 663d babb d03d 6766 34b9
000003b0: a2ea 58bf 9efd 2d3e dcfd 5d3c fdb7 543e
000003c0: e650 c5bd 19dd 07bf 63ff 613e a12a 953d
000003d0: 4ae6 413e b5c9 78be f157 edbe 90de 56be
000003e0: 8a14 463d 44c5 4e3e
0.16912019 -0.15302296 -0.17535149 -0.19154745 0.106594846 0.24944979 0.15000127 0.14587411
0.0667164 0.46498653 -0.06565025 -0.007025125 0.34494627 0.21205321 -0.16850199 -0.013326565
0.06317597 -0.19535628 0.21136923 -0.034424275 -0.65529644 -0.36062372 -0.43743095 -0.42761678
-0.44288656 -0.7066527 -0.6572757 -0.7269861 -0.5834154 0.055084974 -0.18597819 0.35059544
0.2527493 -0.32353032 -0.60888803 0.11644317 0.058086082 0.09549744 0.17949791 -0.7056233
0.111290626 0.072410405 0.04647991 0.39164135 -0.6325082 0.24223351 0.16485535 -0.16897038
0.05431832 -0.5916606 -0.08220847 -0.027612116 -0.17568195 0.13200921 0.44546553 -0.45836672
-0.15228453 0.034918908 0.14411314 -0.11151426 -0.09820249 0.10067863 0.5740308 -0.18230844
0.01770392 -0.01571291 -0.031412702 0.21244319 -0.1218649 -0.028975394 0.05741268 0.0036168077
-0.046968006 0.08644623 -0.25202763 -0.3901854 -0.30042067 0.11501576 0.31419098 0.26803225
-0.59356254 0.20029236 -0.14468253 0.010008754 0.14155707 -0.7321699 0.14763424 0.060489163
-0.16296609 0.1322538 -0.36594078 -0.7179815 -0.02505498 0.072337344 -0.08619458 0.097440384
-0.20321788 -0.7066409 -0.5067535 -0.7973479 0.26543188 0.26408988 -0.1364163 -0.25527012
0.21704647 -0.15856266 0.29167187 0.06911498 -0.31172308 -0.30346513 -0.14349388 0.19014277
0.26180953 -0.059711933 -0.38817805 -0.2813692 0.27312738 0.08723552 0.0057068286 -0.3330113
0.12550846 0.3091381 -0.0074137375 0.022708789 -0.56277925 8.424461e-05 -0.3443269 0.18807863
0.37115553 0.42724305 -0.029587694 0.3671051 0.48747844 -0.34886762 -0.3512677 0.29987317
0.10771824 -0.41781586 -0.7691004 0.083865866 -0.07394946 -0.17484987 -0.40761244 0.041611824
0.09554477 0.03724123 0.013114373 0.3224802 0.38589555 0.23777209 -0.57066274 0.052735675
0.097841546 0.07113811 -0.5239855 -0.059859287 -0.23201777 -0.0977352 -0.29090744 -0.0759409
-0.23534432 -0.4031806 -0.6782487 -0.40265423 -0.14810352 -0.5166599 0.0057534124 0.30032557
-0.11203761 -0.41764358 -0.67707163 0.33196726 -0.036825478 0.30249557 -0.5843786 0.22772068
0.07071759 -0.043469246 -0.04127075 -0.7575345 0.09007577 0.21348532 0.06509346 -0.5008152
-0.18850257 0.009544587 -0.4242566 -0.8253994 -0.2900483 0.0019481583 -0.19040936 -0.7331542
0.033478253 0.14975576 0.015449957 -0.9632235 0.05510721 0.110710755 0.050149113 0.41776276
-0.07980095 0.035874654 0.14072517 0.067932814 0.05112229 0.17887099 -0.26257694 -0.040585995
0.26450768 0.08021563 0.49156588 -0.09453521 -0.7251275 0.012576723 0.2094891 0.28671917
0.44010988 -0.4023495 -0.32392287 0.41499335 -0.4936073 0.40618676 0.20787485 0.11180723
0.09410345 0.036524802 -0.5855673 -0.5267033 -0.11459318 -0.037459638 0.17665485 -0.8142642
0.038330384 0.05621074 0.10192056 -0.00017204286 -0.8473302 0.16991279 0.013549294 0.20773311
-0.09634571 -0.53071743 0.22070079 0.072835214 0.18935505 -0.24295695 -0.46356156 -0.20983338
0.04835943 0.20192438

bias f4 [10]
00000000: 87a5 04c0 0857 f1bf 87d0 00c0 620e e7bf
00000010: b141 03c0 a2b8 2dc0 1ef0 9cbf 8d09 babf
00000020: feb7 27c0 68da a7bf
-2.072603 -1.8854685 -2.0127275 -1.8051264 -2.0508845 -2.714394 -1.2260778 -1.4534165
-2.620605 -1.3113527

weight f4 [20, 10, 5, 5]
00000000: 49ab 25be 54aa c03b 826b 433c a400 73bc
00000010: 493d c1bc 1929 4f3d 7d70 7abd c58e a93d
00000020: ea85 d73d 373f 083b 3b7c 82bd 2171 4bbe
00000030: af1b 283e fc20 d23d 62e8 553d b7a5 313e
00000040: c258 7dbe 760d e1bd efa0 2e3e 01a4 cfbd
00000050: a338 273e 6518 91be 7a8c 56be 8f7e 143e
00000060: 6ea9 66bd 1992 5d3e fb61 03bd 9b6a 33be
00000070: 7161 c3be 2629 3dbe 3fcd ff3b 3c6f 453c
00000080: 0c2d e9bd d701 8abe e730 07be afa9 94bd
00000090: 29ae 5ebe 33dd 69be 06ce 82be fa3d 833d
000000a0: 99fc 74bd c774 f9bd 22c1 a9be aadc 53be
000000b0: a969 523d 08dc 0ebe 62bd 01be e837 8e3c
000000c0: 96ec 4c3d fdc4 433e 9135 4d3e 173a 4d3c
000000d0: af93 86bd 0478 203c ef5b 49be 1703 7abe
000000e0: 5fd1 69bc fdee 6c3d 647c 0e3e 5379 91bc
000000f0: 8997 8cbd 5a3b 763a e92e 613d dac0 dbbc
00000100: 2dbc fdbc 0b88 743e 8437 c7bc c12d 65bd
00000110: 6a5d 9fbd 332d 81be 3140 273e 7f3f 5b3e
00000120: 7ce2 bebc 02ef e4be c54d c53d acf4 723e
00000130: 361e 003c 4854 173e 9f68 563d 2f2d d9bd
00000140: f643 59be 80bd 81be 5fdb a4be 5083 23be
00000150: 7058 f4bd 7cc0 76be 127e c7be abe1 b5be
00000160: 2031 0cbe 4132 86bd 2a49 36be 118c f8be
00000170: c332 a2be 9167 bcbd 7077 e9bb d775 10be
00000180: 51bd 9dbe 9646 50be 7262 0d3e 6476 17bd
00000190: 7595 dabd adb8 103e 1c0d 9ebb 3955 f03d
000001a0: faa4 b43d e42e 51bd a8d1 8a3d e081 19be
000001b0: 7081 e53c 833d aebd ddef 34be 41e5 eebe
000001c0: 2389 72bd f9d9 dd3b 2d1a 87be 9ae7 093d
000001d0: 7d44 acbe 7e74 44be be59 223d 14f4 b23d
000001e0: 8449 69bb b08d c83e 37c1 c93d a3cd 863d
000001f0: 59ae b5bd 7e87 673d be0a 0c3e c9f3 043e
00000200: 9b46 093d 1937 1bbe 7f59 c1bd 3681 893c
00000210: 35e0 efbd 2828 3ebd 2440 51bd 89b9 36bd
00000220: a6bd 633c 8c20 38bc 24d7 15bc 9485 4e3c
00000230: 635c 7abd a01a 1d3e 2aea 043c 3b42 abbd
00000240: 4444 543d e90d 8ebd 78d2 afbb 4cfd 8c3d
00000250: a947 643d 48c8 a0bd 1aa4 273e 6e18 443e
00000260: 8711 3bbc 3778 8cbd 9e6a 51be 4d07 a1bc
00000270: bff0 29be 9a72 08be 1900 cbbd 1d4d e5bd
00000280: a7fe ddbd 0122 08bd 8d9f 96be a582 0cbf
00000290: f9a7 c3be 966b 6bbc bed9 80bd fba2 bebc
000002a0: 6e20 d3be 6146 7d3e 2b94 48bd 48d7 91be
000002b0: 1a11 10be c126 e73d 690f f53d f77d 1a3d
000002c0: 8ba6 093e a38c 7b3d becf b3bb df81 6ebd
000002d0: 2614 6abc 0a95 27bd 8873 b8bc 7448 c33d
000002e0: cc3b 9c3d 6564 eabd 8d20 123d c2dc 653e
000002f0: eefa 61bd 9499 b53d 9097 40be 7cbf 673d
00000300: 4e10 d6bc 8491 5bbd bffc eb3c d4e2 97bd
00000310: e989 7abe 5ad8 503c 5020 69bd 2e07 48be
00000320: 76bf 203d 621f 093d 973d 35be 2605 8ebd
00000330: 83dd f63d ae82 453e d49b d13d c20a 9ebd
00000340: 5aa3 b8bd 07c2 c7bd b2d8 38bc b8cb c0bd
00000350: e245 09bc 1507 da3c 9632 fbbd 2b7d 15be
00000360: 102e 00be dce8 e4bc 8a98 2c3b db5a bebc
00000370: e029 8d3d 9575 62be 5580 a83d 972c 203e
00000380: 7044 093e a90d 80bd d576 0c3e efc1 993d
00000390: f59d 05bb 5f6e 5abe 7413 00be 7464 86bd
000003a0: d1bc 19bd 2504 34bd a2e2 06be 33e2 6ebd
000003b0: e8d4 bfbb a424 21be dceb 4abe b94e 92be
000003c0: e2c2 9f3d 5c34 083d 6f01 aabd f81e 72be
000003d0: bcf3 283d 7906 f23d f8c7 7b3d 9b23 a9bd
000003e0: a189 45be dff8 273e 107f 263d 4a4e 7ebd
000003f0: d62b 87be e8eb e0be 88e0 973d c7b2 933c
-0.16178621 0.0058796797 0.011927487 -0.014831696 -0.023588793 0.050576303 -0.061142433 0.08279184
0.10523589 0.0020789632 -0.06371351 -0.19867374 0.1641681 0.102601975 0.05222357 0.17348371
-0.2474089 -0.109888956 0.17053579 -0.10138703 0.16330199 -0.28338924 -0.20952025 0.14501403
-0.056313924 0.21637763 -0.032075863 -0.17521136 -0.3816028 -0.18472728 0.0078064497 0.012050446
-0.11385545 -0.2695453 -0.13202249 -0.07258927 -0.21746124 -0.22838287 -0.25547808 0.064083055
-0.05981121 -0.12180477 -0.3315516 -0.20689645 0.051370297 -0.13951123 -0.126699 0.017360643
0.050030313 0.19118114 0.20039965 0.012526057 -0.06571137 0.009794239 -0.19663976 -0.24415241
-0.014271109 0.057845104 0.13914639 -0.017758047 -0.068648405 0.00093929993 0.054976378 -0.026825357
-0.030973518 0.23880021 -0.024318464 -0.055951837 -0.07781489 -0.25229797 0.16333081 0.2141094
-0.023301356 -0.44713598 0.09633974 0.23726147 0.007819703 0.14778244 0.05234587 -0.10604321
-0.21217331 -0.2533989 -0.32198617 -0.1596806 -0.119309306 -0.24096864 -0.38963372 -0.35523733
-0.13690615 -0.06552554 -0.17801347 -0.48544362 -0.31679353 -0.09199441 -0.0071248338 -0.14107452
-0.308085 -0.20339426 0.13807085 -0.03697814 -0.10673038 0.14132948 -0.00482334 0.11735005
0.08820529 -0.05107011 0.0677827 -0.1499095 0.028015822 -0.08507826 -0.17669626 -0.46659282
-0.059212815 0.006770369 -0.26387158 0.033668138 -0.33646002 -0.19185063 0.039636366 0.087379605
-0.0035596797 0.391706 0.09851306 0.06582191 -0.08871145 0.0565257 0.13675973 0.12983622
0.0335146 -0.15157737 -0.09440898 0.016785245 -0.11712686 -0.046425015 -0.05108656 -0.044610534
0.013900196 -0.0112382285 -0.009145532 0.01260509 -0.061123263 0.15342188 0.00811247 -0.08362242
0.051822916 -0.06936247 -0.005365666 0.0688425 0.055732403 -0.078507006 0.16371194 0.19149944
-0.011417753 -0.06858867 -0.20450827 -0.019656802 -0.16595744 -0.13324967 -0.09912128 -0.11196349
-0.10839587 -0.033235554 -0.29418603 -0.5488685 -0.3821409 -0.014368912 -0.06291531 -0.023271075
-0.4123568 0.24733879 -0.04896943 -0.2848456 -0.14069024 0.112866886 0.1196583 0.037717786
0.13442437 0.06141342 -0.0054874113 -0.058229323 -0.01428703 -0.04091362 -0.022516027 0.09535304
0.07628593 -0.1144493 0.035675574 0.22447494 -0.055170946 0.08867183 -0.18807817 0.056579098
-0.026130822 -0.05360557 0.028807042 -0.07416311 -0.24466671 0.012746895 -0.05691558 -0.19533989
0.03924509 0.033477195 -0.17699276 -0.06934576 0.12053969 0.19288132 0.102348 -0.07716896
-0.09015532 -0.09753805 -0.011282133 -0.09413856 -0.008378478 0.026614705 -0.12265508 -0.14598529
-0.12517571 -0.027943067 0.0026336038 -0.023236683 0.06892753 -0.22115166 0.082276024 0.1564201
0.13405013 -0.062526055 0.13717206 0.07507693 -0.002038834 -0.21331166 -0.12507421 -0.06562129
-0.037533585 -0.043949265 -0.13172391 -0.05832119 -0.005854238 -0.15736634 -0.19816536 -0.28575686
0.07800843 0.03325306 -0.08301055 -0.23644626 0.04124807 0.11817641 0.061470002 -0.08258744
-0.19290783 0.1640353 0.04064852 -0.06208638 -0.26400632 -0.43929982 0.07415873 0.018029584

bias f4 [20]
00000000: f61a 633f c419 ed3e bb19 e7be 2316 a53e
00000010: 9c72 283f f052 64be 177e ebbd c025 11bf
00000020: f2ce 133f 82f0 48bf 0392 29bf 3751 12bf
00000030: 837e b2be a6e1 3cbc c92f 3bbf a103 b1bc
00000040: cd03 11be 5ca0 bdbd 36ba 17bf 51a0 cabd
0.88713014 0.4630872 -0.45136818 0.3224345 0.6579988 -0.22297263 -0.11498659 -0.56698227
0.5773765 -0.78491986 -0.6623842 -0.57155174 -0.34862146 -0.011528408 -0.7311979 -0.021608176
-0.14161606 -0.09259102 -0.5926851 -0.09893859

weight f4 [50, 320]
00000000: 1ebb 17be 0e34 833d 82ab ee3a 6eaa ef3c
00000010: 1e4b ee3d 2466 7ebd d49b abbb 3b96 e23d
00000020: 8288 c13d f7eb 64be 15eb b9bd 2465 073e
00000030: 5b27 82be 0d9f 983d 0881 a13c ee4a 1a3e
00000040: 2e01 96bd 1a41 563e 23e8 453d c7ce 333e
00000050: 9981 5bbe 274d f4bd 5e03 a2bd cd3c 4d3d
00000060: 4e0b 25be 1b37 4fbd b5ef 4739 6ccf 9cbc
00000070: e41e 3ebd 446f bfbd ddf3 d1bb 2588 2a3d
00000080: 0d2c 333d 76c0 453e afb8 8e3d 9004 95be
00000090: b6db 003e b2a1 8b3d 1436 1b3c c744 59be
000000a0: 14d4 f1bc 9b3c 04be ded5 c0bc ea91 2ebd
000000b0: a492 3bbe bc5d ffbd 0ee1 35be 909e 783d
000000c0: fc97 03bd a88a a73c 0146 e4bc f2c0 253e
000000d0: 369e 893d fec4 7fbd 349c 97bd a2f9 423e
000000e0: 27f7 c9bd ea6f 203c aad5 f4bd 0ff8 213e
000000f0: fe2f 94bd d43e cc3d 9307 21be df5a 683d
00000100: 3f00 2cbe 8a9f 1cbc 452b ae3c 8973 503e
00000110: f685 9abe 434a 0b3d 0fb3 7e3c 87bd 513e
00000120: fcf9 a7be e8ec 41bd b7be 94bd fe8e 123e
00000130: f5c7 e3be 3c8d 103d f2b2 093e 9921 203d
00000140: 47e8 213e 1f9b c63d f97f a5bd 054b 8fbc
00000150: ff22 3a3e 52c3 04be dc90 13be 7b76 f23c
00000160: 50f7 ccbd e556 3d3c 869c 4dbd 8299 263d
00000170: 77e7 bbbd 8a55 17bd 0348 ed3d 7e80 213e
00000180: 2ea9 593d 3562 56bd 063b 3b3c 9309 27bc
00000190: 7aac d3bd 36dc ea3d e2db 52bd e60c 6e3d
000001a0: cb0f b23c 0461 e33d 179e d4bd eeb1 493d
000001b0: c931 4c3b 263c 2fbd 568b 1bbd 9b7a 8bb7
000001c0: 0607 13be dab7 82be 0e4c 40be 835a 8bbd
000001d0: 1192 fbbd 00c9 4fbe 8786 f1bd 84ab 19be
000001e0: fcb2 91bd 1052 98bd c4e4 4d3d c4ca 253d
000001f0: 7f2c 813e 2c28 e83a 6433 21bd 921e 833e
00000200: efc3 f4bd dd78 9dbd 0a5f 96bc a3f2 623d
00000210: b1c8 fdbd 92bf 8d3d 5dda dd3d e2ba 42bd
00000220: 1bac d3bd 22b6 c2bd 4ec4 1fbd 1e9c 4f3d
00000230: 8f73 adbe de69 c93d 49be 10bb 3837 353a
00000240: 83e7 0a3e c4ec 5fbe 7718 35be 03f3 8bbe
00000250: 00af 953e 5cda 10bc 2e17 cc3c 121a dbbe
00000260: febf 123e b953 60bc 0c32 823e 0412 4abe
00000270: 0a13 873e 72f5 033e 490e 143e 2afd 20be
00000280: 9683 14be 22ca 4abe 9a78 d7bc 5e36 813c
00000290: 5eec ab3d fb62 7fbd 055b 5c3c 69ed 093e
000002a0: b715 313e 814b 243d be94 163d f462 2f3d
000002b0: e6be 82bc bcf2 fcbc c41e 0fbe d3b7 5fbd
000002c0: 2319 7b3d f075 45bd 0dfc 603c 9532 40be
000002d0: 1e19 203e aca4 0fbe 74d3 03bd ff56 c7be
000002e0: 8dd6 643d 37d0 193e 6b37 813e ad4b 14be
000002f0: adf9 443e acb0 f13d 3d49 bb3d 5484 42be
00000300: bd5a 393c 2b93 313e 0ecf 6a3e 9c37 b83d
00000310: 0476 77be 821b 5c3d 11f7 9dbd ffb3 08be
00000320: 63b4 aabe 34f7 afbd cfa6 9e3d 8c5f a53d
00000330: 005e 58be f9b1 c7bd f053 0b3d eefe ac3d
00000340: b551 00bd 9b6a 743d 8d4b 9dbd 407b 79bd
00000350: edd2 8bbd 05ee c63d e72a 97bc ca70 97be
00000360: f3d1 dfbc 0100 183e 3b77 a33b 13d5 a03d
00000370: 8454 ab3c 3166 bb3d 1cd2 273d 26db ef3c
00000380: 14d7 463e 1b84 5cbe 3343 85be c427 6bbe
00000390: 1f54 a93e c6bb 013e c615 e43d 2233 75be
000003a0: fd91 103e 62e5 8bbc 4374 f33c 83b2 a3be
000003b0: 3cca 9b3d 8bf2 a6bc 2c5e 703e 0c76 48be
000003c0: 715c e0bd 08b8 3b3b 01e2 fbbd a6f6 df3d
000003d0: 1fa4 8cbe abe6 09bd bdd4 5dbc 6d0e 88bd
000003e0: 2c96 2fbc b7f1 99bd 574a 723d 852c d5bd
000003f0: d3a9 4e3e ad36 403d 6a15 153d 7aad a93c
-0.14817473 0.06406413 0.0018209072 0.029256072 0.11635421 -0.062109128 -0.005237082 0.110638104
0.09449865 -0.22355638 -0.090780415 0.13222176 -0.2542065 0.074522115 0.019714847 0.15067646
-0.07324444 0.20923272 0.048317086 0.17559348 -0.21436156 -0.11928778 -0.079107985 0.050106812
-0.16117594 -0.050589662 0.00019067417 -0.019141875 -0.04641618 -0.09347394 -0.0064072446 0.041633744
0.043743182 0.193117 0.06968819 -0.29105043 0.12583813 0.0681795 0.009473342 -0.21217643
-0.029520072 -0.12913744 -0.02353948 -0.042619623 -0.18317658 -0.1246905 -0.17761633 0.060698092
-0.032127365 0.020451859 -0.027865412 0.16186884 0.067196295 -0.062443726 -0.0740284 0.1904054
-0.09861594 0.009792307 -0.11954816 0.15817283 -0.07235716 0.09972921 -0.15725546 0.056727286
-0.16796969 -0.009559521 0.021260867 0.20356573 -0.3018033 0.03400637 0.015545621 0.20482455
-0.3280791 -0.047345072 -0.072629385 0.1431236 -0.44488493 0.03529094 0.13447168 0.03909454
0.15811263 0.09697556 -0.080810495 -0.017491827 0.18177412 -0.12965134 -0.14410728 0.029597512
-0.100081086 0.011556362 -0.0501981 0.04067374 -0.09175008 -0.03694681 0.11586001 0.15771672
0.053139858 -0.05233975 0.0114276465 -0.010195154 -0.10335632 0.11467783 -0.051479228 0.05811777
0.021736046 0.11102489 -0.10381716 0.049241953 0.0031157604 -0.04278197 -0.037974678 -1.6627184e-05
-0.14358148 -0.25530893 -0.18779013 -0.06804373 -0.12283719 -0.20291519 -0.11793237 -0.15006834
-0.07114217 -0.07437527 0.050266996 0.040476575 0.2522926 0.0017712167 -0.03935565 0.2560926
-0.11951434 -0.076890685 -0.018355865 0.055407178 -0.123917945 0.06921305 0.10832665 -0.047541507
-0.10335561 -0.09507395 -0.03900557 0.050685994 -0.33877227 0.09834646 -0.0022086075 0.000691283
0.13564877 -0.21867663 -0.17685114 -0.2733384 0.29235077 -0.008841123 0.024913397 -0.42793328
0.14331052 -0.013691836 0.25428808 -0.19733435 0.26381713 0.12886599 0.14458574 -0.15721574
-0.14503321 -0.1980367 -0.026302624 0.015772995 0.08394693 -0.062350255 0.013449435 0.13469471
0.1729344 0.04011107 0.036762945 0.04281898 -0.015960168 -0.030877464 -0.1397658 -0.054618668
0.06130327 -0.048208177 0.013731969 -0.18769296 0.15634581 -0.14027661 -0.03218408 -0.3893356
0.055868674 0.15020834 0.25237593 -0.14481993 0.19235869 0.118012756 0.091448285 -0.18995792
0.011313138 0.17341296 0.22930548 0.08994982 -0.24166113 0.05373717 -0.0771314 -0.13349913
-0.3334075 -0.08592072 0.0774666 0.08074865 -0.21129608 -0.097507425 0.034015596 0.084470615
-0.031327922 0.05967198 -0.07680426 -0.060908556 -0.0682734 0.097133674 -0.018453075 -0.2957824
-0.027321791 0.14843751 0.0049885786 0.07853141 0.020914324 0.09150351 0.04097186 0.029279303
0.19417983 -0.21534769 -0.2602783 -0.22964388 0.33071992 0.12669286 0.111369655 -0.23945287
0.1411819 -0.017077152 0.029718524 -0.3197213 0.076069325 -0.020379325 0.23473424 -0.19576281
-0.10955132 0.0028643627 -0.12298966 0.10935716 -0.27468964 -0.033667248 -0.01353949 -0.066433765
-0.010716956 -0.075168066 0.059152927 -0.10408882 0.2018197 0.046927143 0.036397375 0.020712603

bias f4 [50]
00000000: d591 643e a86a 1f3e a5c1 463e 2eb2 edbe
00000010: 62a8 a83e 096c b1be 0dda b2be 351e 1d3e
00000020: 0339 07bd 7f49 34be 566a 613e 9447 9d3d
00000030: 3a52 163e 8bdd ef3d 1fe3 d5be 71bd 4ebd
00000040: 72df b23e f44c 96bc a856 bcbd d25f 273e
00000050: 778f a5be b479 a03e 2541 313f 82a9 a83e
00000060: db6f 443e 7500 633d 61dc f1be 2d60 9e3e
00000070: 1ae7 14bd 8463 e23e 2624 0e3e 189b bebe
00000080: 99f5 1d3e 8646 ad3d 82be 3b3e fe85 b13e
00000090: 1d9f a33e 9ea1 973d 8638 853e f66f 723f
000000a0: d7c1 173c 8f4f 973e 7a66 adbc a4f3 f73d
000000b0: 75c8 823e 6bd0 3cbe b769 213e bcfd af3e
000000c0: 512b 193e 8032 d13c
0.22321256 0.1556803 0.19409807 -0.46425003 0.32940966 -0.34652737 -0.34931985 0.15343554
-0.033013355 -0.17606162 0.2201322 0.07679668 0.14679804 0.11712178 -0.41774842 -0.050473634
0.349361 -0.018347241 -0.09196216 0.16345146 -0.32336017 0.31342852 0.6924003 0.32941824
0.19183294 0.055420358 -0.47238448 0.3093275 -0.036353208 0.4421655 0.13880977 -0.37227702
0.1542572 0.08460717 0.18334392 0.3467254 0.3195733 0.07403873 0.26019686 0.9470209
0.009262524 0.29552886 -0.021167029 0.12107018 0.25543562 -0.1843888 0.15762983 0.3437327
0.1495793 0.025536776

weight f4 [10, 50]
00000000: 196f 113e 41e9 853d 776a e33e 133d 60be
00000010: 306a c1be 7af7 8abe 888d d1bd 0378 983d
00000020: 042d 673e 01dd c6be f104 07bf 43c3 c0be
00000030: b8c3 c6be 41ed 2d3e 7d30 24bc efd6 883e
00000040: f0de dd3e 4503 813e 1c3c 7c3e 29f2 cabe
00000050: ceac 70be 3c56 c4be c404 c3be 3a81 c4be
00000060: cebe 3cbe a554 583e 3d21 2bbe 84b3 79be
00000070: 1452 c0be 7e56 4e3e 98ad e1be 1995 a4be
00000080: 9bbf 693e 2e08 483e 1a67 e0be 6dc9 dcbe
00000090: ce3f 7c3e 2150 ab3e 28e9 06bf 9fd1 45be
000000a0: 5e1c bebe d313 92be 9425 4a3e 144d ecbe
000000b0: 3142 72be e402 5f3e 817f a0be 7b0e a3be
000000c0: c705 923d da46 913e adc7 4abe ad50 9638
000000d0: 13bd 28bf a7df 3ebe 8bb4 bf3e 27f8 c9be
000000e0: 3e63 aebe 4c1e e63d a282 a1be a594 f2bd
000000f0: 53d6 013e 7729 18be 508e 25be 9bd4 9f3d
00000100: 6eec b4be 69df b1be 0cbe 7ebe 6e28 ddbe
00000110: 7bad ddbe 2718 273e 7b80 f0be a3ff 1c3e
00000120: 2748 c73e 4138 873e 2101 2d3e 50e1 aabe
00000130: 0825 27bf 5654 633e 3b15 7abe 1d87 5a3e
00000140: f0ca d63d 35e2 acbe 756b 7dbe 58d7 9dbe
00000150: a0f2 573e e63d 893e 700e eabe f791 10bf
00000160: 99b8 3a3e 1721 463f 8775 033e bd61 aa3e
00000170: 0266 cabe 408f c5be 7476 923e be5c c7be
00000180: 02aa 973e 0a4b 5d3e c6b8 15be df7f abbe
00000190: 9618 923e f0ff ef3d 41fb 0dbe ef44 273e
000001a0: 5f94 963c cecb bfbc 82d2 2a3e 85f3 883d
000001b0: 036e 873e d943 9e3e a13d 2dbe 2b25 fcbd
000001c0: 73d2 823e 940f 173e f6d6 febd 12f9 08be
000001d0: a962 d93e 5362 463b 6509 a1bd f3ee 4a3d
000001e0: 191d ffbd bca0 9c3e 5904 24be 34a8 abbe
000001f0: 0945 993e e0eb c4bd d4a1 c1bd 5f51 5d3e
00000200: a3c1 86be 0f42 ae3e 2f22 2dbe 3494 38be
00000210: bf81 9f3e ca07 a5bd 0069 a33e b4f3 19be
00000220: 6098 efbd 959e 72bc 9574 e3bd 4e39 4b3d
00000230: 9a9e 1f3e 9df3 96bc 4acb a2bb c9dc 34be
00000240: 026d 2a3e ac64 c73c 5f1f 233d ebe7 bf3e
00000250: 458d c9bd 0800 c33e e1f5 5a3e c25d 8fbb
00000260: 1aa3 55be 6477 573e 073a 4abe 560d 48be
00000270: 78ef 343e 347c f5bd df1f 6e3e a9a7 983e
00000280: f5e5 663e 6640 863e 2beb 8ebd bf98 18be
00000290: dcc9 eabc bf3c 713e 07e0 973d 6d79 5b3e
000002a0: d625 833e 0bd4 b7bd 8fe6 913e 8111 4e3e
000002b0: 7dae 953e 8b21 333d 89f2 8d3e 9ae5 94be
000002c0: a2f7 733d db63 833e 5931 963e 88b7 403e
000002d0: 9e3a 593e 455d ac3e 285f 823e 9d9b 173e
000002e0: 1c57 443e 555b 833e 1f0e 163e 2154 18be
000002f0: 183f 723e 413f 27be 68be 30be 4719 6dbe
00000300: ac63 843e df68 dbbc 1566 22be 33b7 83bd
00000310: 3970 4bbe b392 ef3c f785 97be 306d 783e
00000320: f06c af3d e03b bfbc 606c 01be b110 bebd
00000330: 41e2 0dbd eaa7 653e 1a59 93be 7fc8 503e
00000340: f41b 8dbe bf36 6e3e 3df0 5b3e 644b 363e
00000350: ba0b a63e 334b 2c3e dce7 0d3e 2aa0 8cbe
00000360: aea5 d5bd 22dd 3dbe 7838 5cbe c5b9 783e
00000370: 17fc 0fbe 7d4e 3c3e 7322 893c dc2c 423e
00000380: e557 91be 29a7 883e cdf0 243c b546 f83d
00000390: bc8a a63e ec97 adbe cb3a 393e 1449 3cbe
000003a0: 57f2 32be 3ce5 70be 5e10 6e3e de1f 88bd
000003b0: c2a6 21be 71a3 abbd f367 633e edb4 473d
000003c0: 26d4 463e 18df 5abe 9bb0 25be e6c8 c73e
000003d0: e3d0 e1bd 554a ccbd 53bf cf3d b154 6cbd
000003e0: 894c 603e faf1 b3be d53c 65be 98c1 36bd
000003f0: 5665 b6bd c627 94be aa0c 8ebe b815 283e
0.14202537 0.0653863 0.44417164 -0.21898298 -0.37776327 -0.27141935 -0.10232073 0.074447654
0.22575766 -0.38840488 -0.52741915 -0.37648973 -0.38821197 0.16985036 -0.010021326 0.2672648
0.4333415 0.25197807 0.24632305 -0.3963788 -0.2350342 -0.38347042 -0.38089573 -0.38379842
-0.18432161 0.2112604 -0.16711898 -0.24384886 -0.3756262 0.20150182 -0.44077754 -0.32145002
0.22826998 0.1953437 -0.4382866 -0.43122426 0.24633715 0.3345957 -0.5269952 -0.19318245
-0.37131017 -0.2853075 0.19740897 -0.46152556 -0.23658063 0.21778446 -0.31347278 -0.31846985
0.07130008 0.28374368 -0.19802733 7.1675844e-05 -0.65913504 -0.18640004 0.3744243 -0.39447138
-0.3406009 0.112362474 -0.31544977 -0.11844758 0.12679414 -0.14859568 -0.16167569 0.07804223
-0.35336632 -0.3474076 -0.24877185 -0.43194908 -0.43296418 0.16317807 -0.46973023 0.15331893
0.38922235 0.26410106 0.16894962 -0.33375025 -0.6529088 0.2220014 -0.24422161 0.21340604
0.10487926 -0.33766332 -0.24748023 -0.30828357 0.21088648 0.26805037 -0.4571414 -0.56472725
0.18234481 0.7739424 0.12837802 0.33277693 -0.3953095 -0.38585854 0.28605998 -0.38937944
0.29621893 0.21610656 -0.14621267 -0.33495995 0.28534383 0.11718738 -0.13865377 0.1633489
0.018381296 -0.023412611 0.16681865 0.06687073 0.2645112 0.3091114 -0.16918041 -0.12311777
0.25551185 0.14752036 -0.12443344 -0.13376263 0.42458084 0.0030271008 -0.0786312 0.049544286
-0.12456722 0.3059138 -0.16017283 -0.33526766 0.29935482 -0.09615302 -0.094546944 0.21613072
-0.26319608 0.34034774 -0.16907571 -0.18025285 0.31153676 -0.08058126 0.31916046 -0.15034372
-0.11698985 -0.014808317 -0.11106221 0.049615197 0.15587845 -0.01842671 -0.0049680816 -0.17662348
0.16643146 0.024339996 0.03982484 0.37481627 -0.09841398 0.3808596 0.21382858 -0.0043751905
-0.20863 0.21041638 -0.19748698 -0.19536337 0.17669475 -0.119865805 0.23254345 0.29815415
0.22548659 0.26221007 -0.069784485 -0.14902018 -0.028660707 0.23558329 0.07415777 0.21433039
0.25614804 -0.08975991 0.28496215 0.20123865 0.29234686 0.04373316 0.27724102 -0.29081422
0.059562333 0.2566212 0.29334524 0.18820012 0.21213767 0.3366491 0.25463223 0.14805456
0.19173855 0.25655618 0.14653824 -0.14875843 0.23656881 -0.16332723 -0.17260134 -0.23154174
0.25857294 -0.026783405 -0.15859254 -0.06431427 -0.19867028 0.029244756 -0.29594395 0.24260402
0.085657 -0.02334398 -0.12638998 -0.092805274 -0.0346396 0.22427335 -0.28778917 0.20388983
-0.2756039 0.23263071 0.21478362 0.17802197 0.32430822 0.16825561 0.13857979 -0.27465945
-0.104319915 -0.18541387 -0.21505916 0.24289615 -0.14061008 0.18389316 0.01674006 0.18962425
-0.2838737 0.26690033 0.010067177 0.12122861 0.3252772 -0.3390497 0.18088834 -0.18387252
-0.17475258 -0.23524946 0.23248431 -0.06646703 -0.1578627 -0.08380783 0.22207622 0.04875653
0.19416866 -0.21374166 -0.16180651 0.3902046 -0.1102617 -0.09975115 0.10143914 -0.057697956
0.21904196 -0.3514555 -0.22386487 -0.04461822 -0.08906047 -0.28936595 -0.27744037 0.16414535

bias f4 [10]
00000000: e523 2b3f 0e80 113f 4480 d1be 448e 82bf
00000010: 3f6e 403d 3a5d f83c aa47 943e faa3 11be
00000020: b556 6c3e 1022 88be
0.66851646 0.5683602 -0.4091817 -1.0199666 0.04698014 0.030317891 0.28960925 -0.14222708
0.23079951 -0.26588488

weight f4 [4, 50]
00000000: 2b40 133e 2d7b ffbd 8927 143c 8f06 9d3e
00000010: 3e62 80bc 32e4 263e b4b2 a2be e983 ad3e
00000020: 4d8d 4a3e 6a2c 1c3c b694 53be 5976 253e
00000030: f1f5 84bd 8af0 1bbd 25de 38be 9b90 28be
00000040: b8a9 a33d 205a 273e 7c6b ba3d f193 bbbd
00000050: 9147 55be 1a2f 56be d603 463d 4031 833e
00000060: 6883 803e 4947 94be 9c38 503c 368d 8c3e
00000070: 1c76 c93d 516b 73be a92a 45be 2a58 5d3e
00000080: abc9 32be 4ec9 993e 6c5e efbd 6491 81be
00000090: 6966 483c 613f ccbc dc6e 313e 9e87 45bd
000000a0: a690 673e e21a 903e 0fd4 04be e896 00be
000000b0: 9ffe b53e c54a 53be c23b 96be 329b db3d
000000c0: c5e4 9b3e 99a2 84bd bc56 3b3e da2f bb3e
000000d0: c68b b5bc 2bc9 6dbe 0f46 5c3e 492e 293e
000000e0: 91cc ac3e 453d edbd 987b 20be e731 823d
000000f0: ee02 533e 752c fbbd 27ed 47bc c0be 35be
00000100: 6de9 2abe ae3d 51be 388e a9bc 09d7 0a3e
00000110: 9712 25be 6951 793e 8335 3b3e d1ac 8dbd
00000120: ecca 77bc f47f 92be a67f 87be b801 783e
00000130: f12b 7bbd c6b3 4cbe 3d93 ffbd 1c8f 803e
00000140: 6bc8 68be 643c 8bbe 1b28 37be e173 3ebe
00000150: cef7 063e 133c 8f3e d670 063e 46b2 8a3b
00000160: e936 613e c2a5 a0bc 34b8 64be a824 a6be
00000170: 3e6f 4f3e 8087 b43d 5d23 9cbe 8b77 573e
00000180: 2fa3 aa3e 7c39 033e 647e 99be abbb 39ba
00000190: 5e31 c2bd d73b 1dbe 9cd3 5c3b f1ef 9b3e
000001a0: 0d30 cbbe ed68 21be 0f39 89be 4162 93bd
000001b0: 1328 4f3e 5286 32bd 3415 483e a7c2 44be
000001c0: 838d c13c 9061 ae3e 331a 3c3e a8ff ab3e
000001d0: f332 00be 2e19 2abe a79e 02be 2e62 463e
000001e0: aa63 27be 0a3f e33d aa77 15bb 9079 833e
000001f0: 91cd a43e ab8e 52be 0dfc 023c b0a0 5ebe
00000200: 4075 f8bd 1b8f 7fbe 1bdd 363e 64bf 743e
00000210: 0a1a 203e 2c76 9abc fb4d 6b3e 0fcf 93be
00000220: 7086 1f3d f176 223c 4cc4 3abe 83d3 1b3b
00000230: 81e0 46be 1ad0 e63e 4d18 0d3e 480b 9b3b
00000240: 05ff a13e 5bb6 3a3e 4b79 b3be aada 97bd
00000250: 539e 913e 796a 843d d9c6 6bbe 3683 b4bd
00000260: 3fc3 093c 6259 c1be 6ede 483e c098 2fbe
00000270: cd50 7d3e 50f5 18be 03bf 78be f987 edbc
00000280: bf2a 49be fedf 1b3e 7a7c 563d 62a7 00be
00000290: 8611 2a3e 68c0 f03c f6e5 833d f40c 05be
000002a0: c4e9 493e 2333 b1be b561 433e 6c48 2d3e
000002b0: 2397 ecbc 4508 69be f969 9fbe d645 823e
000002c0: ae45 253d 8bcb 123e c027 163e c367 733e
000002d0: ba8a 773e 9b2e 3bbe f695 463e 9fdf c2bd
000002e0: 0f37 7bbe c02c 863e d743 3bbe 02f9 133c
000002f0: 0850 56be 56dc 863d 1a9f 433e b5af d1be
00000300: 0b00 59be 4c74 0f3d f6c9 babe 9743 3fbe
00000310: 3ca9 9e3e 5b5e 24be 9bd5 94be 86e1 593b
0.14379947 -0.12474666 0.009042629 0.30669066 -0.015671846 0.16297987 -0.31776965 0.33889702
0.19780464 0.0095320735 -0.20662197 0.16158427 -0.06492222 -0.038071193 -0.18053491 -0.16461413
0.07991356 0.16342974 0.09102532 -0.09159077 -0.20828082 -0.20916405 0.048343502 0.25623512
0.25100255 -0.28960636 0.012708809 0.27451485 0.09836981 -0.23771407 -0.19254555 0.21615663
-0.17459743 0.30036396 -0.116879314 -0.25306237 0.012231448 -0.024932565 0.17327446 -0.048225038
0.22613773 0.2814551 -0.12971519 -0.12557566 0.35545823 -0.20633991 -0.29342467 0.107229605
0.30447975 -0.064763255 0.18294805 0.36559945 -0.022161376 -0.2322127 0.215111 0.16521563
0.33749822 -0.11583952 -0.15672147 0.06357174 0.20606586 -0.12264339 -0.012202538 -0.17748547
-0.16690607 -0.20433685 -0.020697698 0.13558592 -0.16120373 0.24347462 0.18282132 -0.06917728
-0.015124064 -0.28613245 -0.26464576 0.24219406 -0.061321203 -0.19990453 -0.12479255 0.25109184
-0.22732703 -0.27194512 -0.17886393 -0.18598892 0.13180467 0.2797552 0.13128981 0.0042326776
0.21993603 -0.01961029 -0.22335893 -0.32449841 0.2025728 0.08814907 -0.3049573 0.21041696
0.33327624 0.12814897 -0.2997924 -0.00070851546 -0.09482072 -0.15354858 0.0033695465 0.30456498
-0.39685097 -0.15762682 -0.26801345 -0.07196475 0.20230131 -0.04358513 0.19539338 -0.19214879
0.023627048 0.3405881 0.18369369 0.33593488 -0.12519436 -0.16611168 -0.12755834 0.1937339
-0.16346613 0.11096008 -0.002280692 0.25678682 0.32188085 -0.20562236 0.007994664 -0.21740985
-0.12131739 -0.24956934 0.17857783 0.23901135 0.15634933 -0.018855177 0.22978966 -0.2886891
0.03894657 0.009916053 -0.18238944 0.0023777194 -0.19421579 0.45080644 0.13778801 0.0047315694
0.31639877 0.18233626 -0.35053477 -0.07414754 0.28441104 0.064656205 -0.23025073 -0.08814089
0.008408367 -0.37763506 0.196161 -0.17148113 0.24737854 -0.1493733 -0.24291615 -0.0289955
-0.19645213 0.15222165 0.052364804 -0.12563851 0.16608247 0.029388621 0.06440346 -0.12993222
0.19718081 -0.34609327 0.19080241 0.16922158 -0.028880661 -0.22757061 -0.31135538 0.25443906
0.040349655 0.14335458 0.14663601 0.2377005 0.24174014 -0.18279497 0.19393143 -0.095153086
-0.24532722 0.26206017 -0.18287598 0.009031536 -0.20928967 0.065849945 0.19103661 -0.40954366
-0.21191423 0.03502302 -0.3648221 -0.18678127 0.3098849 -0.16051619 -0.29069218 0.0033245995

bias f4 [4]
00000000: e515 bfbd e4e5 39bd 6d48 5abe b85b b63e
-0.09330348 -0.045385256 -0.2131669 0.3561685
